data.pth (torch, 5098 bytes, 6 tensors)

l1.weight f4 [8, 43]
000000 cd 1a a1 3e 78 39 bf 3e b7 83 ee be 4e 01 0f 3f
       0.3146576 0.37348533 -0.46584865 0.55861366
000010 bc 73 6d be 4d e8 0f 3f 8b 5b a4 3e 60 e7 51 3e
       -0.2318868 0.5621384 0.32101092 0.20498419
000020 f3 c8 a0 3e 1b e1 f0 3e 7f 86 a2 3e 59 fd 77 3e
       0.31403312 0.47046742 0.31743237 0.24217738
000030 7e 85 df 3e 8d a9 a1 3e d7 ff d7 3e 46 38 90 bd
       0.43656534 0.3157467 0.42187378 -0.07041983
000040 bd 65 f1 3e fb c1 a2 3e a0 af a6 3e 88 21 fc 3e
       0.47147933 0.3178862 0.32555866 0.49244332
000050 79 65 6d be 60 cd ea 3d cb 8a 63 3e ef 69 9b 3e
       -0.2318324 0.114649534 0.22220914 0.30354258
000060 7e 50 9c 3e a8 eb 0c 3e 67 f1 bb 3d b2 8c 1c 3e
       0.3053016 0.1376177 0.09176903 0.15288046
000070 41 c6 15 3f c9 03 0d 3f f0 9d 35 3c e7 06 07 3f
       0.58505636 0.550839 0.0110850185 0.5274491
000080 1f 02 87 3e 12 ff f0 be 25 85 2c 3d 12 2c 1c 3e
       0.26368806 -0.47069603 0.042119164 0.15251186
000090 bb 55 1e 3f 7a 47 53 3e b5 c8 9f bd 89 46 df 3e
       0.61849564 0.20632735 -0.07801954 0.43608502
0000a0 3d b7 78 be b1 45 7c 3e 34 95 85 3e 65 00 8f 3e
       -0.2428865 0.2463596 0.26090395 0.27929989
0000b0 58 93 e2 3e a7 e7 c2 3c 4c d6 e4 3e d8 5b b9 be
       0.4425304 0.023792101 0.44694746 -0.36202884
0000c0 1a 23 44 3f d1 c1 ba 3e 14 46 ce 3e 36 9b a9 3e
       0.7661606 0.36475995 0.4028784 0.3312623
0000d0 6b 4d 24 3f b9 2d a0 3e 7c 95 4e 3e ef 82 33 3f
       0.6418063 0.31284884 0.20174211 0.70121664
0000e0 0c df ad 3e d1 e7 c6 3e 01 24 1a 3e ab aa 4e 3e
       0.33959234 0.38848737 0.15052797 0.20182292
0000f0 0b 82 d2 3e c8 7a a7 3e cf 4b b0 3e 20 76 a1 be
       0.4111484 0.32710862 0.34432837 -0.31535435
000100 57 2d 5d 3d 36 e1 f6 3e ba db f0 3d c5 50 0b 3f
       0.053998318 0.48218697 0.117606595 0.5442012
000110 2a 03 90 3e b2 b6 14 3e 6c e4 77 3e ba ce 91 3e
       0.28127414 0.14522818 0.2420823 0.28478032
000120 de 1a aa 3e 68 a5 84 bd 56 3d fa 3e c1 4d 1f 3e
       0.33223623 -0.06476861 0.4887492 0.15557005
000130 e2 45 7f 3d 8c b8 8f 3e e6 96 0d 3e 11 b4 df 3e
       0.062322505 0.28070486 0.13827094 0.43692067
000140 36 97 a4 3e 58 7f bd 3e 39 08 d0 3e 6e 38 57 be
       0.32146615 0.37011218 0.40631273 -0.2101762
000150 e1 a0 08 3e fb e9 a9 3c 04 2e 1b 3e d5 90 98 3d
       0.1334262 0.020741453 0.15154272 0.074494995
000160 c9 b5 29 bf 84 83 87 bd 06 81 83 be 97 cd f7 bd
       -0.6629301 -0.066168815 -0.25684375 -0.1209976
000170 f9 16 4d 3e 7c 35 9a 3e fe 1e 82 3e c6 11 cf bd
       0.20028295 0.3011893 0.2541427 -0.10110812
000180 72 15 41 3e 95 da a3 3e 17 d5 56 3e 51 d4 03 3f
       0.18855837 0.32002702 0.20979725 0.51495844
000190 bd 91 2c 3e 1f 81 15 3f e9 07 f8 3e 2f 4b 2c 3e
       0.1685247 0.5840015 0.48443535 0.16825555
0001a0 f0 9f 17 3f e7 7d 78 3e 9d ae 42 bd 3c 05 c7 bc
       0.5922842 0.24266778 -0.047529805 -0.024294488
0001b0 2d b7 39 3e bb 6f ce 3e a7 d4 6a be 91 79 ba bd
       0.18136282 0.4031962 -0.22932683 -0.09105218
0001c0 71 5b f4 bd cd 01 8a 3d b8 39 25 3f c9 5d be 3e
       -0.119315036 0.06738625 0.64541197 0.37180927
0001d0 76 8a 25 be eb f3 07 3f fd 53 92 3e 34 05 a5 be
       -0.161661 0.53106564 0.28579703 -0.32230532
0001e0 06 3e 5d bc 57 3f cd 3e cd 69 1b 3f 42 db b6 3e
       -0.013503557 0.40087387 0.60708314 0.35714155
0001f0 97 64 28 be 8f e7 85 3e 61 89 76 bd 7d af 5a 3d
       -0.16444622 0.26153228 -0.06018961 0.053390015
000200 37 54 01 3f 28 ed b3 bd 76 a9 9d 3e a0 c2 33 3f
       0.50519127 -0.08785468 0.3079335 0.7021885
000210 75 a6 40 3e d4 ed de 3e 72 47 8c 3d 22 ac 9a 3e
       0.18813498 0.43540823 0.068495646 0.30209452
000220 86 2d a7 be 97 47 b7 3e 5f 57 03 bf be a1 bc bd
       -0.3265192 0.35796806 -0.5130519 -0.092105374
000230 4f b0 30 be 5f 71 e9 3d 54 93 6a be 92 64 96 3e
       -0.17254756 0.11398577 -0.22907764 0.29373604
000240 c5 f4 0f 3d fb 1e 9d be ed 28 6b 3e 3f e8 e0 be
       0.03514554 -0.306877 0.2296483 -0.4392719
000250 dd c4 90 bd 6d 4a 40 3f 3a d1 76 3e b4 dd 74 3e
       -0.07068799 0.75113565 0.24103251 0.23912698
000260 8e 68 f5 be 76 d2 f4 3e 2a cb d1 3e 75 aa 99 3e
       -0.4793133 0.4781682 0.40975314 0.3001286
000270 1e 9a 02 be 0e 38 ef be 29 28 32 be a3 23 27 3f
       -0.12754104 -0.46722454 -0.17398132 0.6528875
000280 76 59 47 3d d2 19 b3 be df 7a bc 3e 92 18 36 3e
       0.0486693 -0.34980637 0.36812493 0.1778281
000290 43 c2 c1 bd a8 5d 3b bf da 42 68 be 08 41 8e 3e
       -0.094608806 -0.73189783 -0.22681752 0.2778399
0002a0 08 b2 8b 3e 59 bc 42 3e b8 37 88 3d 4b d3 08 be
       0.27284265 0.19017161 0.066512525 -0.13361852
0002b0 ce 12 d8 3d 65 b6 17 3f d6 60 1b 3f ea 3b eb 3e
       0.10550462 0.59262687 0.60694635 0.45944148
0002c0 3e af 40 3e b9 08 39 3f 00 d2 8f 3e 7c f5 86 be
       0.1881685 0.72278935 0.28089905 -0.26359165
0002d0 f2 3e f6 3e fc 80 f7 3e 45 5c 23 be 6c 61 a8 3b
       0.48094898 0.48340595 -0.15953167 0.0051385667
0002e0 f3 b4 65 3d 71 33 5f be 46 0c 7d 3e e4 3f 66 be
       0.05608077 -0.21796967 0.24711713 -0.2248531
0002f0 8e 01 95 be 1b c7 6e 3e ee 69 d3 be 27 8b 81 be
       -0.2910275 0.2331814 -0.41291755 -0.25301477
000300 41 88 b0 3d bb 60 44 bd 80 68 49 3e 5c 55 b3 be
       0.08619738 -0.047943812 0.1966877 -0.35026062
000310 f1 4c 0b 3f d8 50 dd 3e cf eb b2 3e a2 56 90 bc
       0.5441428 0.4322574 0.34945533 -0.017619435
000320 49 cc c0 be 70 9f 5f 3e 4f a3 e4 3e 51 44 10 3e
       -0.37655857 0.21838164 0.44655845 0.1408856
000330 98 a3 b5 bc 33 b5 77 3e 86 aa 44 3e b9 11 8f be
       -0.022172734 0.24190216 0.19205675 -0.2794321
000340 e6 84 1f bf 58 19 a3 be 4f 36 a3 3e 0c 60 d0 3e
       -0.6231216 -0.31855273 0.31877372 0.40698278
000350 6a d8 20 be 75 be ef 3c e7 9a d6 be 8c 0e 00 be
       -0.15707555 0.029265622 -0.41915056 -0.12505549
000360 77 4e 07 be 54 de 27 bd 80 82 7b 3c e4 2b fd 3d
       -0.13213526 -0.040983513 0.015350938 0.12361887
000370 63 8f a0 bd be d2 da bd b0 c5 7b bc 00 dc d7 bd
       -0.07839849 -0.10684727 -0.015366957 -0.105400085
000380 f8 f0 26 3d a0 de 71 3c 62 c2 0d be 07 fb 13 be
       0.04075715 0.014762551 -0.13843682 -0.14451228
000390 f8 14 84 3c 0e ac 0d 3e 58 26 a0 bd a8 f7 d1 bd
       0.01612328 0.13835165 -0.078198135 -0.10252315
0003a0 12 81 87 3d 32 c8 9f bd 20 ba 29 bc 30 43 9d 3d
       0.06616415 -0.07801856 -0.010359317 0.076788306
0003b0 1f 59 06 be 29 25 c3 bd b2 fe 81 bd 2a 1f 84 bd
       -0.13119934 -0.09528572 -0.063474074 -0.064512566
0003c0 40 16 08 bb a4 4a 86 bd a0 a5 18 bd f6 ab 14 be
       -0.0020765215 -0.06557205 -0.037267327 -0.14518723
0003d0 80 9b c9 bd 94 b1 16 3d 5d 2e 82 bd 6a 02 1b bd
       -0.098441124 0.036790445 -0.06356499 -0.0378441
0003e0 12 22 43 bd 2d 29 b7 bd bc df d7 3d 20 ba 17 3d
       -0.047639914 -0.089434005 0.10540721 0.037042737
0003f0 50 0a 24 3d 92 9c 13 3e 48 4d 9a bc 7a a4 88 bd
       0.040048897 0.14415196 -0.018835679 -0.066719964

l1.bias f4 [8]
000000 be 7d 6d 3e f3 fc df 3e 76 df 62 3e 21 78 37 3f
       0.23192498 0.43747672 0.22155556 0.7166768
000010 27 f5 ea 3e 5c 91 08 be 09 df 48 3f 44 20 19 3f
       0.4589016 -0.133367 0.78465325 0.5981486

l2.weight f4 [8, 8]
000000 e3 af 43 3f 1a 46 5a 3f fd e7 04 3f 13 11 fa be
       0.76440257 0.85263216 0.51916486 -0.48841152
000010 b4 37 a7 3e 04 21 fd 3d 52 67 a6 3e 79 90 41 bf
       0.32659686 0.12359813 0.32500702 -0.7561107
000020 43 b2 6a 3f 0a 52 51 3f 26 77 3f 3f 99 77 43 bf
       0.91678256 0.81765807 0.7479118 -0.76354367
000030 07 3b 56 bf 22 35 83 3e 55 09 85 3f 3b 78 8f 3e
       -0.8368382 0.25626475 1.0393473 0.28021416
000040 ee c4 28 3e e5 94 88 be 01 59 79 be 84 28 ad 3d
       0.16481373 -0.26676098 -0.24350359 0.08454993
000050 7c 40 3c 3d 16 35 8e be 92 6e 02 bd f6 ad f7 3d
       0.045959935 -0.27774876 -0.03184373 0.12093727
000060 cb ac 6b be 20 15 fa 3e c4 af 08 bf 0d 34 ae 3f
       -0.23015134 0.48844242 -0.533932 1.3609635
000070 3b 4c 8d 3f 07 72 62 be 64 86 9f 3f 2e 07 76 3f
       1.1038889 -0.2211381 1.2462888 0.96104705
000080 04 b4 80 be 96 d2 f0 bd 60 64 cf bd 55 76 3d 3e
       -0.2513734 -0.11758916 -0.10126567 0.18502171
000090 be 5c e2 bd c0 ff db bb 0f e8 18 bc 76 74 16 be
       -0.110528454 -0.0067138374 -0.009332671 -0.14692864
0000a0 42 d9 26 3f 96 48 22 3f e4 42 83 3e 06 2a 28 be
       0.6517526 0.6339201 0.2563697 -0.1642228
0000b0 51 04 36 3f ab c7 93 3e c2 3a 1a bf 4d c2 7d bf
       0.71100336 0.28863272 -0.6024591 -0.99124604
0000c0 4b 8c 42 3f aa d5 51 3e 72 5c 06 3f 02 05 58 bf
       0.7599532 0.20491663 0.5248481 -0.8438264
0000d0 58 ba d4 be 0c 50 00 be 83 fe 09 bf b7 44 0c bf
       -0.4154842 -0.12530535 -0.5390398 -0.5479235
0000e0 7d 81 af 3e 61 51 58 3f c1 d1 1f bf 7d 92 07 3f
       0.3427848 0.84499174 -0.62429434 0.529579
0000f0 ce 83 5f 3f 18 c2 5c 3d 05 a2 8d bf 7f 28 57 3f
       0.87310493 0.05389604 -1.106507 0.8404617

l2.bias f4 [8]
000000 09 e2 47 3e e0 70 8d 3b f5 1a ba be 3d 16 3c 3f
       0.1951982 0.0043164343 -0.36348692 0.7347143
000010 f5 3b 61 be c9 3b f3 3d 37 2e 10 be f4 aa f0 be
       -0.21995528 0.118766375 -0.1408013 -0.47005427

l3.weight f4 [5, 8]
000000 b9 14 80 bf 71 bc 5f bf be 42 01 be 33 45 d8 3e
       -1.0006324 -0.87396914 -0.12623116 0.42240295
000010 40 1c 8e be ce be 06 bf d5 7d 2d bf 24 a6 6e 3f
       -0.27755928 -0.52634895 -0.6777013 0.9322226
000020 ef 85 93 3e c1 85 ac be 95 b9 21 3e 0d 36 c0 3d
       0.2881312 -0.33695796 0.1579345 0.09385309
000030 73 25 8c 3e a7 01 6f 3f 8b 64 86 bf a4 53 58 3e
       0.2737232 0.93361896 -1.0499433 0.21125656
000040 5e 71 b9 3e b2 a1 a7 3e ed 29 9c bd e0 43 3a bf
       0.36219305 0.3274055 -0.07625184 -0.7275982
000050 37 25 a0 3e 6a af 4b 3f 04 40 1e 3f dc 90 17 bf
       0.31278393 0.79564536 0.6181643 -0.5920541
000060 66 af 06 3e 06 2d 5c 3f c2 d7 4f 3e 52 1d 08 3d
       0.13152847 0.860062 0.20297149 0.033231087
000070 a5 98 23 3d 95 14 36 bf ae 8a 47 bf 80 92 fa be
       0.039940495 -0.71125156 -0.77945983 -0.48939896
000080 13 66 39 bf bb 39 31 bf f6 56 1b 3e 73 c8 98 3f
       -0.7242138 -0.69228715 0.15169892 1.1936172
000090 d8 cd a8 be e6 5a 13 bf 85 f9 37 bf 6a 8e b4 bf
       -0.32969546 -0.57560575 -0.7186511 -1.4105961

l3.bias f4 [5]
000000 41 79 07 bf a3 6a c4 be f2 02 5b be 42 5e 11 be
       -0.52919394 -0.38362607 -0.21387842 -0.14196113
000010 ea 99 80 3f
       1.0046971
